model/model.pth (torch, 15895 bytes, 6 tensors)

l1.weight f4 [56, 1]
00000000: a2ef e93e 0464 4dbf c2e6 81bf 729a b83e
00000010: 0ed5 44be 3d35 08bf 5c1b 46bf 8029 113f
00000020: d330 de3e 03b1 b03d 669b 68bf 24cb 0c3f
00000030: 2aa0 4ebd 120d 4dbd 38e1 183e 926a 07bd
00000040: 8dc2 9e3e b0a9 e73e baaf 313f dcf2 01bd
00000050: 28d8 bcbe de99 43bf 5c25 f3be 5cc2 333f
00000060: 5864 bdbc c7c7 723e e5ea 0fbf 4afd 44bf
00000070: 85f3 373e 0680 913d aebd f4be 0242 b8be
00000080: 69c8 1bbf 11cd 78be ab41 723e b4f1 80bf
00000090: 563b 7fbd 7c29 7ebf f3ce 81bf eae5 4ebc
000000a0: 0c4b 003f d7f3 26bf ce2e 453f a07d 1ebf
000000b0: aca4 023e a48b 053f e330 633e b6c3 643e
000000c0: 8985 f0bc 8e15 61bf fca1 c2be 82c6 4abf
000000d0: 9a1c 21bf ac83 6ebf 162a 13bf 510f d3be
0.45690638 -0.80230737 -1.0148547 0.36055332 -0.19221899 -0.53206235 -0.773855 0.5670395
0.43396625 0.08627512 -0.9086212 0.5499747 -0.050445713 -0.050061293 0.14929664 -0.033060618
0.31007805 0.4524665 0.6940876 -0.03172575 -0.36883664 -0.7640666 -0.4748944 0.70218444
-0.023119137 0.23709022 -0.56217796 -0.7694899 0.17963989 0.07104497 -0.47800964 -0.3598786
-0.60852677 -0.24296977 0.23657863 -1.0073762 -0.062312447 -0.9928205 -1.0141281 -0.012628058
0.5011451 -0.6521582 0.77024543 -0.6191044 0.1275813 0.521662 0.22186618 0.22340283
-0.02936055 -0.87923515 -0.3801421 -0.7920915 -0.6293427 -0.93169665 -0.57486093 -0.41222623

l1.bias f4 [56]
00000000: 0b65 823f 16d3 3e3f 292f 89be 800a 0640
00000010: 3693 61bf b021 0cbd 55cb edbe a1dd a4bf
00000020: 0401 cf3f cee7 e2bf 8d02 fbbe 130c 6bbf
00000030: 135a 773e 9d5e 0440 aa1b e7bf ec3d 933f
00000040: f9af 01bf 43f5 ebbf 263d a33f 1e1d 8c3f
00000050: c475 653f bd62 b7be 9f4c 6b3f 6cfd a3bf
00000060: c984 11bf a1c9 a03f 9a17 8abe bc74 133f
00000070: aed8 afbf e7fc c53f 2ee1 c8bd e50e 643f
00000080: bb15 63be 9b4c 513f 4814 ec3f 910e 023f
00000090: ec6c 933f 281a 28bf b799 203f bb11 ba3f
000000a0: 0e7f f63e 9ddc 83be 7394 c9bf 83d6 b0be
000000b0: 576c d5bf 901f fd3f 3bc6 cebf 8fbf 0040
000000c0: e979 543f d14f e6be a0ee 623f b29b 0d3f
000000d0: abad a5be a98f 853e 3e40 81bd cfd8 253e
1.0187086 0.7454084 -0.26793793 2.0943909 -0.8811525 -0.034211814 -0.46444193 -1.2880136
1.6172185 -1.7726991 -0.49025384 -0.918153 0.24155454 2.0682747 -1.8055317 1.1503272
-0.5065914 -1.8434223 1.2753036 1.0946386 0.8963282 -0.3581752 0.9191379 -1.2811713
-0.5684324 1.2561532 -0.26971132 0.576 -1.3738 1.5467805 -0.098085746 0.8908523
-0.22176258 0.81757516 1.8443689 0.50803477 1.1517615 -0.6566491 0.6273455 1.4536661
0.4814381 -0.25754252 -1.5748428 -0.3453866 -1.6673688 1.9775257 -1.6154245 2.0116918
0.8299852 -0.4498277 0.8864536 0.553157 -0.3235906 0.26086167 -0.06311081 0.16195987

l2.weight f4 [56, 56]
00000000: 0852 b33d 8a56 bf3c 3538 1c3d 0bf4 c7bc
00000010: 8a00 b53d 8618 d7bd 8bb1 c63d 18bf b2bd
00000020: 0de5 62bc a823 d8bd 6d56 cfbd 5172 87bd
00000030: d68a a33c 7ab1 8d3d 5909 b3bd 75b3 983c
00000040: 2b90 a53d 4f53 bcbd a723 84bd 8e43 fc3c
00000050: 1fa1 36bd f713 113d a180 c1bd 5b9d 983b
00000060: 7e6f ca3c 2338 1b3d f7dd e93d 19ba 1fbd
00000070: 6ac7 03bc a329 22bd 3b6b 35bd 46f6 ccbd
00000080: 8d29 63bc ce69 643d 4391 903d 9f1c b0bd
00000090: e8d6 75bd 4f8c 623d 2a16 28bb 1baf 873d
000000a0: bbf0 f5bd abdc e1bd 87d9 5fbd 1fce c0bd
000000b0: c548 94bd 31a8 d9bd 68ff 0e3d 47d1 c6bd
000000c0: 4f79 dabd 5176 263d a51c 423d 9037 d6bd
000000d0: 846c d7bc 6e07 863c 31c4 87bd 1ebc d63d
000000e0: 34cd 14be ef1c 86bd d59f 9dbc f3f6 cebd
000000f0: 42fb f6bd d72a 68be 6fc5 55be 9fa9 f9bd
00000100: a336 d53d acdd 83ba 701a 25be af27 01be
00000110: aa5c 30bc aba2 e03d 052c bebd 6bb7 c23d
00000120: e22d 643d a5eb dbbb 2975 033c 6d79 f23d
00000130: c386 4c3c 91df 83be 760c 193c 2f55 af3d
00000140: 0a7f e43b f8f6 2cbd b458 d2bd d2a0 9e3d
00000150: b81d efbc cd4f a8bd d2bb eabd 20e6 75bd
00000160: 8310 22be 6b0b 76bd 6d40 bdbd fd2e 93bd
00000170: f7b0 c53d 122c 2dbe a085 d33d e13d 30bd
00000180: a5fb 0cbe b478 75be a2c3 cc3c 86c8 41bd
00000190: 5d19 b2bd 2ab3 a0bc d0db fabc a8f2 243c
000001a0: 255c ae3d afcc bebd 3242 89bd 613a 7f3d
000001b0: a750 7bbe 9ce3 b53c db36 84bd 6e43 9fbd
000001c0: 483a 683d 4dc2 353c d64d a1bd 553c 3cbc
000001d0: b5fb 97bc 6a69 b43d cb0a 2f3d 1baf 563d
000001e0: bc06 9d3d 05c3 ca3d 0c23 a93d 7d13 d5bd
000001f0: 65fe 9d3d 8d8c 9ebd 5c5e e63d 3a9b 85bc
00000200: 4e6e 88bd 3e32 0bbd 1491 8d3d 0b1a 08be
00000210: 581a 36be 9519 843d 148b 0abd 97a8 d0bd
00000220: b52d 4939 5afd c4bb 7054 febb ea73 c93c
00000230: a396 a23d d8bc b13d bd5e 42bb 45cf 19be
00000240: ed79 b43c 0df7 c3bd b22a 8dbd 8a8e cbbd
00000250: 5aa2 9fbd 1b2b 863d d774 0fbd 27e0 32be
00000260: 1b31 d13d 2478 95bd 4322 fbbd 3376 783c
00000270: e10c 8bbd 9dd4 8a3c 2cab 473d 9114 223d
00000280: d69a 023c 9e1d ddbd 821e cfbd a306 df3d
00000290: aa5f 4b3b 5865 263d ce66 a8bd 9884 b63d
000002a0: 8a14 ce3d 2161 16bb 19de 723d a165 39be
000002b0: 2e6b 723b ae58 debd 07f9 203d 8fc2 aa3d
000002c0: 0985 a1bc 7c19 ab3d 891a a03d 9ae5 5cbd
000002d0: dece 6ebd 4557 aabd 18fa ce3d f74f 97bd
000002e0: ed10 4dbd f49d 573c ddd2 aabd efac 963d
000002f0: f024 f3bd 2a3b df3d 3175 2dbd 0011 9b3d
00000300: 1591 dabd dc50 f2bd a131 c4bd f10b f8bc
00000310: c0c7 803d f307 0dbe 1a58 c63c 0b45 bdbc
00000320: c59e eabd a924 bd3c 6239 ba3c fbee dbbc
00000330: 4fda 423d cdd3 d1bd 607d fc3c 39cf 063d
00000340: edc8 49bd 3be3 86bd abcf b1bd 621d 4c3d
00000350: a7e3 843c cf49 21be 3bbe c03d 357b 16be
00000360: a24b abbc 894d 94bc 60ad 78bd 6ef2 fc3c
00000370: 86d3 bc3d 7362 28bd e300 743d d006 c33d
00000380: abcc 893d 8d7e e1bd 2c06 303d 7923 87bd
00000390: 5fb9 9d3d e58d 51bd 43d8 853d a126 c3bd
000003a0: 4bf7 18bd f678 62bc eb3f 053d 94d9 443d
000003b0: 9fda dc3d f8a7 eabd 50bc 043d acb0 2ebd
000003c0: 7976 5a3d ccf9 4a3d b9dc c4bd bb6a a0bd
000003d0: bf86 9d3c f9fe be3d 71b0 05bd 63c0 03bd
000003e0: 96cd 3abc 5179 e5bd 8a08 b73d 9df7 803d
000003f0: cc17 e93d cb5b 6ebd 1342 143d 444a d7bd
0.087558806 0.023356695 0.03813954 -0.024408361 0.088379934 -0.10502724 0.097018324 -0.087278545
-0.013848555 -0.10553676 -0.10123906 -0.06613601 0.019963663 0.069186166 -0.08742017 0.01864026
0.080841385 -0.09195577 -0.06452113 0.030793931 -0.04458725 0.03541943 -0.09448362 0.00465743
0.024711367 0.037895333 0.114192896 -0.038995836 -0.0080431495 -0.03959049 -0.044291716 -0.100079104
-0.013864887 0.055764966 0.070589565 -0.08599209 -0.060019404 0.05530959 -0.0025647976 0.066251956
-0.12008806 -0.11028417 -0.05465081 -0.094143145 -0.07240442 -0.10627783 0.034911543 -0.09707885
-0.10667669 0.04064018 0.0473906 -0.104598165 -0.026296861 0.016360965 -0.066292174 0.10485099
-0.14531404 -0.065484874 -0.019241253 -0.101056956 -0.120596424 -0.22672592 -0.20876096 -0.12190556
0.10410812 -0.001006057 -0.16123366 -0.12612794 -0.01076428 0.109685265 -0.0928574 0.095076405
0.05570782 -0.0067114406 0.008023539 0.118395664 0.012483302 -0.25756505 0.00934135 0.08561169
0.006973152 -0.042227715 -0.10270825 0.07745518 -0.029188976 -0.08218346 -0.11461605 -0.060033917
-0.15826611 -0.060069483 -0.09240804 -0.07186697 0.09652894 -0.16911343 0.10328221 -0.043027762
-0.1376787 -0.23971826 0.024995629 -0.047310375 -0.08696244 -0.019616682 -0.030622393 0.010067619
0.08513669 -0.09316384 -0.06702079 0.062311534 -0.24542485 0.02220326 -0.06455775 -0.07776533
0.056696206 0.011093688 -0.07876174 -0.011488994 -0.01855264 0.08809169 0.042734902 0.052413087
0.076673 0.09900478 0.08258638 -0.10404108 0.077145375 -0.07741652 0.11248466 -0.01630937
-0.06661664 -0.03398346 0.06912437 -0.13291185 -0.17783487 0.06450192 -0.03382404 -0.10188406
0.00019185881 -0.006011647 -0.0077615306 0.024591405 0.07938888 0.08678597 -0.002965852 -0.15020473
0.022030795 -0.095686056 -0.06892909 -0.099392965 -0.07794638 0.065511905 -0.035023537 -0.1746832
0.10214444 -0.07298306 -0.12262394 0.0151649 -0.06789566 0.016947085 0.048747227 0.039570395
0.007971486 -0.10796665 -0.10113241 0.10889938 0.0031032362 0.040623993 -0.082227334 0.08912009
0.10062511 -0.0022946077 0.05929384 -0.18105175 0.0036990154 -0.10856758 0.03929999 0.0833789
-0.019716756 0.0835447 0.07817561 -0.053929903 -0.058302753 -0.083174266 0.10106295 -0.07388299
-0.05006497 0.013160218 -0.08341 0.07357203 -0.1187228 0.108999565 -0.04234809 0.07571602
-0.106722035 -0.11831829 -0.095797785 -0.030279132 0.06288099 -0.13772564 0.024211932 -0.023104211
-0.11456064 0.02308877 0.02273244 -0.026847353 0.047571477 -0.10245476 0.030821502 0.032912467
-0.049263883 -0.065863095 -0.08682188 0.04983271 0.016221834 -0.15750812 0.094112836 -0.14695437
-0.020910088 -0.018103378 -0.06071222 0.030877318 0.092200324 -0.041109513 0.05957116 0.09522784
0.067284904 -0.11010466 0.042974636 -0.06598563 0.07701372 -0.05116071 0.06535389 -0.09528852
-0.037345212 -0.013822785 0.03253166 0.04805906 0.10783886 -0.11457819 0.03240615 -0.042648956
0.05333564 0.04955463 -0.09612412 -0.07832857 0.019229291 0.09325976 -0.03263897 -0.032165896
-0.011401555 -0.1120478 0.089371756 0.062972285 0.11381492 -0.05819301 0.036195826 -0.10512212

l2.bias f4 [56]
00000000: 2ebb 2dbd 3b75 793d baab 38be b61c 74bc
00000010: 39d8 8b3a 4486 d63e a137 fd3e 8ed6 b83d
00000020: e5d9 3b3f ea29 0ebe db86 98bd d99c b13e
00000030: 4070 bdbc 963e 063f 9be2 aa3c 52df 1abe
00000040: 1ffc 153c c524 f53d b811 06bf 5e36 c0bd
00000050: 4f02 9d3d dc0f b73d ad5f 0f3e 4e8f 1c3d
00000060: 9722 f2be 1848 2e3f eabd 9fbd e118 393d
00000070: 237f f8be db87 31bf 1243 953d 9da8 8dbc
00000080: 2468 893d f5f1 7dbd 6df7 083f fc1b b93e
00000090: 4d61 9f3c 66bf 373d 14db d03f 039b 3d3f
000000a0: 6b87 26bf e9d8 9ebe f1dd 143f cffe 17bf
000000b0: f47e c3bd 7ad4 5b3e 85a8 d0bc 1f46 3c3f
000000c0: e447 35bf b6d1 c2be e742 863d 09a5 0abe
000000d0: 77e9 c7bd d618 643e 42f0 9c3d c2d2 663e
-0.042414837 0.060902815 -0.18034258 -0.014899423 0.0010669298 0.41899312 0.49456504 0.09025298
0.73379356 -0.13883176 -0.07447597 0.34689978 -0.023124814 0.5243925 0.020860007 -0.15124252
0.009154349 0.11969904 -0.52370787 -0.0938537 0.07666456 0.08938572 0.14001341 0.038222603
-0.47292015 0.68078756 -0.07799895 0.045189742 -0.48534498 -0.69347924 0.07288183 -0.017292315
0.067093164 -0.061998326 0.5350254 0.36154163 0.019455576 0.044860266 1.6316857 0.74064654
-0.6505038 -0.31024864 0.58151156 -0.5937318 -0.09545699 0.21467772 -0.025470981 0.73544496
-0.7081282 -0.38050622 0.06555729 -0.13539518 -0.09761327 0.22275099 0.07663013 0.22541335

l3.weight f4 [3, 56]
00000000: a346 0ebd 96e8 c7bd 23fd 59bb fc22 1a3d
00000010: 31ad b3bd e24e 0d3f d85d 52bd ee5a 3fbc
00000020: 7907 623f 5816 02be 7d33 d83d b90d 88bd
00000030: 88ef 773c 800b a8bc 6049 1e3d b437 093d
00000040: f517 9ebd 129c 303d 8247 19bf 4ec9 853c
00000050: 0c14 d43c 32c5 6cbd e72f efbc 386f 5e3d
00000060: 7e0d c93b d6f8 cd3d 6aa0 7c3d d3aa ce3c
00000070: 4181 95bd b312 93bf 9328 41bd 573f 853c
00000080: a42f a3bd cb36 54be 779a 03bc ec5b 42bd
00000090: 53e3 49bd e391 2dbd f4cd 22c0 2790 dfbd
000000a0: 4d6f d0bd b719 e43c 981c b73e f0c6 e6b9
000000b0: 3aa5 70bc 6c35 ee3c 06d5 92bb 1cde 9d3e
000000c0: e061 06bf 598d 9fbe bdb0 a53c 9628 293d
000000d0: 0774 ec3d 0d21 b23c baed 533d 5675 23bd
000000e0: b917 253d fb92 8b3c aad1 efbb 943a d1bb
000000f0: e11e 683a d5bb d13b e263 46bb 9b9d 8d3d
00000100: 930a 533f 4543 aabe 775d 673e 7ed4 203e
00000110: 4b89 84bd 3182 9cbd 9352 d53d 8c39 e7bd
00000120: 7087 e33a 3597 f8bc f1fa 56bf 57d6 1a3d
00000130: a9a6 f3bc db79 df3d 8140 81bd 8175 21bd
00000140: 5b99 a83d 1193 783d 716a 863c e357 9a3c
00000150: aa8d 0fbe f4b8 c9bf bc80 82bd 9810 ccbd
00000160: de43 b83c 80cc 00bf 36a2 88bd 67ca 6abd
00000170: 6d2c b5bd 5a30 cebd 0b18 9ac0 b828 cc3e
00000180: ac61 953d 782e 71bd 0bd5 b73f 4878 203d
00000190: 77aa a03c 87fe 9fbd d28f b13d d58c ad3f
000001a0: d281 7cbe 27c4 d4be 6386 cbbc c820 093c
000001b0: 6050 c63d 7670 58bc 2bf9 81bb 9079 93bd
000001c0: c270 d23c 6bbf 3dbd 15d6 95ba f09d b53d
000001d0: 1f6c f1ba 7749 8e3e 5581 d9bd 7dc0 debc
000001e0: accc 223f a773 a8be 2a7f 5f3e b130 533e
000001f0: ec92 b0bc 260e acbd 9fd3 51bd 04ec 7bbc
00000200: 2489 c73a 26d1 9cbd 32d5 0fbf 56f4 89bd
00000210: 18ba 52bd a503 533d 79e9 87bc 8430 aebb
00000220: cdb5 2f3d 2456 8dba ea19 8d3d 4a48 e23d
00000230: df79 3dbe 04cc 5bbf edb6 f03c c612 7fbd
00000240: c578 db3c 3690 e5be 64da 89bd db6a 86bd
00000250: 3db9 84ba b969 9ebd 8743 18c0 d527 953e
00000260: ddf3 2bbb 9945 cdbd 7705 943f 8cdb 0a3d
00000270: 7f24 d8ba e579 cabd f6ce fb3c e9fe 76bf
00000280: 8b49 9abe 2c98 cabe e367 8abd c1ee b33d
00000290: d7ca 9abd 3d40 623b ee34 8e3c 52ba 96bd
-0.034735333 -0.09761159 -0.0033262454 0.03763102 -0.08773268 0.5519849 -0.051359028 -0.011679394
0.8829265 -0.12703836 0.105566956 -0.066432424 0.015132792 -0.020513296 0.038644195 0.03350039
-0.07719413 0.04311759 -0.5987474 0.016331341 0.025888465 -0.057805248 -0.029197646 0.054305285
0.0061356416 0.10057227 0.06167642 0.02522794 -0.07300044 -1.1490082 -0.047157835 0.016265554
-0.07968071 -0.20724027 -0.008032433 -0.047450945 -0.04928906 -0.042375457 -2.5438204 -0.10916167
-0.10177479 0.027844293 0.35764003 -0.00044017239 -0.014687831 0.029078208 -0.004480961 0.30833519
-0.52493095 -0.31162527 0.020225877 0.04129847 0.11545568 0.021744275 0.051740386 -0.039906822
0.040305827 0.01703786 -0.007318695 -0.006385157 0.0008854699 0.006400565 -0.0030271937 0.069148265
0.8243801 -0.33254448 0.22594248 0.1570606 -0.06471499 -0.076420195 0.104161404 -0.11290273
0.0017359089 -0.030345539 -0.83976656 0.037802067 -0.029742556 0.10911914 -0.06311131 -0.0394187
0.08232375 0.06068713 0.016408177 0.018840736 -0.14018884 -1.5759568 -0.063722104 -0.099641025
0.0224933 -0.5031204 -0.06671564 -0.057321932 -0.08846364 -0.10067816 -4.815435 0.39874816
0.0729402 -0.058882207 1.436189 0.03917721 0.019612534 -0.07812219 0.0867001 1.3558604
-0.24658898 -0.41555902 -0.024844354 0.008369632 0.09683299 -0.0132104065 -0.0039664707 -0.072009206
0.025688533 -0.04632513 -0.0011431599 0.08868015 -0.0018419063 0.27790424 -0.10620371 -0.027191395
0.63593554 -0.32900736 0.21825853 0.20624043 -0.021554433 -0.08401136 -0.05122721 -0.015376095
0.0015223366 -0.076570794 -0.56184685 -0.067360565 -0.051447004 0.051517148 -0.01659082 -0.005315842
0.042897988 -0.0010783118 0.06889708 0.11048944 -0.18503521 -0.8585818 0.0293841 -0.062273763
0.026790986 -0.44836587 -0.06731108 -0.0656335 -0.0010126006 -0.07735009 -2.3791215 0.29131952
-0.0026237883 -0.1002304 1.1564168 0.033900782 -0.0016490369 -0.09886531 0.030738335 -0.9648271
-0.30134234 -0.39569223 -0.06758096 0.08785773 -0.0755822 0.0034523152 0.017359223 -0.073597565

l3.bias f4 [3]
00000000: 5c0a ebbd 6407 afbd 546f adbe
-0.11476585 -0.085463315 -0.33874
